…
[38;5;15m  [39m[38;5;197mPRECISE_BN[39m[38;5;15m:[39m
[38;5;15m    [39m[38;5;197mENABLED[39m[38;5;15m:[39m[38;5;15m [39mfalse
[38;5;15m    [39m[38;5;197mNUM_ITER[39m[38;5;15m:[39m[38;5;15m [39m200
[38;5;197mVERSION[39m[38;5;15m:[39m[38;5;15m [39m2
[38;5;197mVIS_PERIOD[39m[38;5;15m:[39m[38;5;15m [39m0

[11/03 13:43:41] detectron2 INFO: Full config saved to checkpoints/FRCN-V2-19-slim-FPNLite-3x/config.yaml
[11/03 13:43:41] d2.utils.env INFO: Using a generated random seed 45809002
[11/03 13:43:44] d2.engine.defaults INFO: Model:
GeneralizedRCNN(
  (backbone): FPN(
    (fpn_lateral2): Conv2d(112, 128, kernel_size=(1, 1), stride=(1, 1))
    (fpn_output2): Conv2d(128, 128, kernel_size=(3, 3), stride=(1, 1), padding=(1, 1))
    (fpn_lateral3): Conv2d(256, 128, kernel_size=(1, 1), stride=(1, 1))
    (fpn_output3): Conv2d(128, 128, kernel_size=(3, 3), stride=(1, 1), padding=(1, 1))
    (fpn_lateral4): Conv2d(384, 128, kernel_size=(1, 1), stride=(1, 1))
    (fpn_output4): Conv2d(128, 128, kernel_size=(3, 3), stride=(1, 1), padding=(1, 1))
    (fpn_lateral5): Conv2d(512, 128, kernel_size=(1, 1), stride=(1, 1))
    (fpn_output5): Conv2d(128, 128, kernel_size=(3, 3), stride=(1, 1), padding=(1, 1))
    (top_block): LastLevelMaxPool()
    (bottom_up): VoVNet(
      (stem): Sequential(
        (stem_1/conv): Conv2d(3, 64, kernel_size=(3, 3), stride=(2, 2), padding=(1, 1), bias=False)
        (stem_1/norm): FrozenBatchNorm2d(num_features=64, eps=1e-05)
        (stem_1/relu): ReLU(inplace=True)
        (stem_2/conv): Conv2d(64, 64, kernel_size=(3, 3), stride=(1, 1), padding=(1, 1), bias=False)
        (stem_2/norm): FrozenBatchNorm2d(num_features=64, eps=1e-05)
        (stem_2/relu): ReLU(inplace=True)
        (stem_3/conv): Conv2d(64, 128, kernel_size=(3, 3), stride=(2, 2), padding=(1, 1), bias=False)
        (stem_3/norm): FrozenBatchNorm2d(num_features=128, eps=1e-05)
        (stem_3/relu): ReLU(inplace=True)
      )
      (stage2): _OSA_stage(
        (OSA2_1): _OSA_module(
          (layers): ModuleList(
            (0): Sequential(
              (OSA2_1_0/conv): Conv2d(128, 64, kernel_size=(3, 3), stride=(1, 1), padding=(1, 1), bias=False)
              (OSA2_1_0/norm): FrozenBatchNorm2d(num_features=64, eps=1e-05)
              (OSA2_1_0/relu): ReLU(inplace=True)
            )
            (1): Sequential(
              (OSA2_1_1/conv): Conv2d(64, 64, kernel_size=(3, 3), stride=(1, 1), padding=(1, 1), bias=False)
              (OSA2_1_1/norm): FrozenBatchNorm2d(num_features=64, eps=1e-05)
              (OSA2_1_1/relu): ReLU(inplace=True)
            )
            (2): Sequential(
              (OSA2_1_2/conv): Conv2d(64, 64, kernel_size=(3, 3), stride=(1, 1), padding=(1, 1), bias=False)
              (OSA2_1_2/norm): FrozenBatchNorm2d(num_features=64, eps=1e-05)
              (OSA2_1_2/relu): ReLU(inplace=True)
            )
          )
          (concat): Sequential(
            (OSA2_1_concat/conv): Conv2d(320, 112, kernel_size=(1, 1), stride=(1, 1), bias=False)
            (OSA2_1_concat/norm): FrozenBatchNorm2d(num_features=112, eps=1e-05)
            (OSA2_1_concat/relu): ReLU(inplace=True)
          )
          (ese): eSEModule(
            (avg_pool): AdaptiveAvgPool2d(output_size=1)
            (fc): Conv2d(112, 112, kernel_size=(1, 1), stride=(1, 1))
            (hsigmoid): Hsigmoid()
          )
        )
      )
      (stage3): _OSA_stage(
        (Pooling): MaxPool2d(kernel_size=3, stride=2, padding=0, dilation=1, ceil_mode=True)
        (OSA3_1): _OSA_module(
          (layers): ModuleList(
            (0): Sequential(
              (OSA3_1_0/conv): Conv2d(112, 80, kernel_size=(3, 3), stride=(1, 1), padding=(1, 1), bias=False)
              (OSA3_1_0/norm): FrozenBatchNorm2d(num_features=80, eps=1e-05)
              (OSA3_1_0/relu): ReLU(inplace=True)
            )
            (1): Sequential(
              (OSA3_1_1/conv): Conv2d(80, 80, kernel_size=(3, 3), stride=(1, 1), padding=(1, 1), bias=False)
              (OSA3_1_1/norm): FrozenBatchNorm2d(num_features=80, eps=1e-05)
              (OSA3_1_1/relu): ReLU(inplace=True)
            )
            (2): Sequential(
              (OSA3_1_2/conv): Conv2d(80, 80, kernel_size=(3, 3), stride=(1, 1), padding=(1, 1), bias=False)
              (OSA3_1_2/norm): FrozenBatchNorm2d(num_features=80, eps=1e-05)
              (OSA3_1_2/relu): ReLU(inplace=True)
            )
          )
          (concat): Sequential(
            (OSA3_1_concat/conv): Conv2d(352, 256, kernel_size=(1, 1), stride=(1, 1), bias=False)
            (OSA3_1_concat/norm): FrozenBatchNorm2d(num_features=256, eps=1e-05)
            (OSA3_1_concat/relu): ReLU(inplace=True)
          )
          (ese): eSEModule(
            (avg_pool): AdaptiveAvgPool2d(output_size=1)
            (fc): Conv2d(256, 256, kernel_size=(1, 1), stride=(1, 1))
            (hsigmoid): Hsigmoid()
          )
        )
      )
      (stage4): _OSA_stage(
        (Pooling): MaxPool2d(kernel_size=3, stride=2, padding=0, dilation=1, ceil_mode=True)
        (OSA4_1): _OSA_module(
          (layers): ModuleList(
            (0): Sequential(
              (OSA4_1_0/conv): Conv2d(256, 96, kernel_size=(3, 3), stride=(1, 1), padding=(1, 1), bias=False)
              (OSA4_1_0/norm): FrozenBatchNorm2d(num_features=96, eps=1e-05)
              (OSA4_1_0/relu): ReLU(inplace=True)
            )
            (1): Sequential(
              (OSA4_1_1/conv): Conv2d(96, 96, kernel_size=(3, 3), stride=(1, 1), padding=(1, 1), bias=False)
              (OSA4_1_1/norm): FrozenBatchNorm2d(num_features=96, eps=1e-05)
              (OSA4_1_1/relu): ReLU(inplace=True)
            )
            (2): Sequential(
              (OSA4_1_2/conv): Conv2d(96, 96, kernel_size=(3, 3), stride=(1, 1), padding=(1, 1), bias=False)
              (OSA4_1_2/norm): FrozenBatchNorm2d(num_features=96, eps=1e-05)
              (OSA4_1_2/relu): ReLU(inplace=True)
            )
          )
          (concat): Sequential(
            (OSA4_1_concat/conv): Conv2d(544, 384, kernel_size=(1, 1), stride=(1, 1), bias=False)
            (OSA4_1_concat/norm): FrozenBatchNorm2d(num_features=384, eps=1e-05)
            (OSA4_1_concat/relu): ReLU(inplace=True)
          )
          (ese): eSEModule(
            (avg_pool): AdaptiveAvgPool2d(output_size=1)
            (fc): Conv2d(384, 384, kernel_size=(1, 1), stride=(1, 1))
            (hsigmoid): Hsigmoid()
          )
        )
      )
      (stage5): _OSA_stage(
        (Pooling): MaxPool2d(kernel_size=3, stride=2, padding=0, dilation=1, ceil_mode=True)
        (OSA5_1): _OSA_module(
          (layers): ModuleList(
            (0): Sequential(
              (OSA5_1_0/conv): Conv2d(384, 112, kernel_size=(3, 3), stride=(1, 1), padding=(1, 1), bias=False)
              (OSA5_1_0/norm): FrozenBatchNorm2d(num_features=112, eps=1e-05)
              (OSA5_1_0/relu): ReLU(inplace=True)
            )
            (1): Sequential(
              (OSA5_1_1/conv): Conv2d(112, 112, kernel_size=(3, 3), stride=(1, 1), padding=(1, 1), bias=False)
              (OSA5_1_1/norm): FrozenBatchNorm2d(num_features=112, eps=1e-05)
              (OSA5_1_1/relu): ReLU(inplace=True)
            )
            (2): Sequential(
              (OSA5_1_2/conv): Conv2d(112, 112, kernel_size=(3, 3), stride=(1, 1), padding=(1, 1), bias=False)
              (OSA5_1_2/norm): FrozenBatchNorm2d(num_features=112, eps=1e-05)
              (OSA5_1_2/relu): ReLU(inplace=True)
            )
          )
          (concat): Sequential(
            (OSA5_1_concat/conv): Conv2d(720, 512, kernel_size=(1, 1), stride=(1, 1), bias=False)
            (OSA5_1_concat/norm): FrozenBatchNorm2d(num_features=512, eps=1e-05)
            (OSA5_1_concat/relu): ReLU(inplace=True)
          )
          (ese): eSEModule(
            (avg_pool): AdaptiveAvgPool2d(output_size=1)
            (fc): Conv2d(512, 512, kernel_size=(1, 1), stride=(1, 1))
            (hsigmoid): Hsigmoid()
          )
        )
      )
    )
  )
  (proposal_generator): RPN(
    (rpn_head): StandardRPNHead(
      (conv): Conv2d(
        128, 128, kernel_size=(3, 3), stride=(1, 1), padding=(1, 1)
        (activation): ReLU()
      )
      (objectness_logits): Conv2d(128, 3, kernel_size=(1, 1), stride=(1, 1))
      (anchor_deltas): Conv2d(128, 12, kernel_size=(1, 1), stride=(1, 1))
    )
    (anchor_generator): DefaultAnchorGenerator(
      (cell_anchors): BufferList()
    )
  )
  (roi_heads): StandardROIHeads(
    (box_pooler): ROIPooler(
      (level_poolers): ModuleList(
        (0): ROIAlign(output_size=(7, 7), spatial_scale=0.25, sampling_ratio=0, aligned=True)
        (1): ROIAlign(output_size=(7, 7), spatial_scale=0.125, sampling_ratio=0, aligned=True)
        (2): ROIAlign(output_size=(7, 7), spatial_scale=0.0625, sampling_ratio=0, aligned=True)
        (3): ROIAlign(output_size=(7, 7), spatial_scale=0.03125, sampling_ratio=0, aligned=True)
      )
    )
    (box_head): FastRCNNConvFCHead(
      (flatten): Flatten(start_dim=1, end_dim=-1)
      (fc1): Linear(in_features=6272, out_features=1024, bias=True)
      (fc_relu1): ReLU()
      (fc2): Linear(in_features=1024, out_features=1024, bias=True)
      (fc_relu2): ReLU()
    )
    (box_predictor): FastRCNNOutputLayers(
      (cls_score): Linear(in_features=1024, out_features=81, bias=True)
      (bbox_pred): Linear(in_features=1024, out_features=320, bias=True)
    )
  )
)
[11/03 13:43:57] d2.data.build INFO: Removed 0 images with no usable annotations. 41976 images left.
[11/03 13:43:59] d2.data.build INFO: Distribution of instances among all 4 categories:
[36m|  category   | #instances   |  category  | #instances   |  category   | #instances   |
|:-----------:|:-------------|:----------:|:-------------|:-----------:|:-------------|
…
[38;5;15m  [39m[38;5;197mPRECISE_BN[39m[38;5;15m:[39m
[38;5;15m    [39m[38;5;197mENABLED[39m[38;5;15m:[39m[38;5;15m [39mfalse
[38;5;15m    [39m[38;5;197mNUM_ITER[39m[38;5;15m:[39m[38;5;15m [39m200
[38;5;197mVERSION[39m[38;5;15m:[39m[38;5;15m [39m2
[38;5;197mVIS_PERIOD[39m[38;5;15m:[39m[38;5;15m [39m0

[11/04 14:50:06] detectron2 INFO: Full config saved to checkpoints/FRCN-V2-19-slim-FPNLite-3x/config.yaml
[11/04 14:50:06] d2.utils.env INFO: Using a generated random seed 6595979
[11/04 14:50:08] d2.engine.defaults INFO: Model:
GeneralizedRCNN(
  (backbone): FPN(
    (fpn_lateral2): Conv2d(112, 128, kernel_size=(1, 1), stride=(1, 1))
    (fpn_output2): Conv2d(128, 128, kernel_size=(3, 3), stride=(1, 1), padding=(1, 1))
    (fpn_lateral3): Conv2d(256, 128, kernel_size=(1, 1), stride=(1, 1))
    (fpn_output3): Conv2d(128, 128, kernel_size=(3, 3), stride=(1, 1), padding=(1, 1))
    (fpn_lateral4): Conv2d(384, 128, kernel_size=(1, 1), stride=(1, 1))
    (fpn_output4): Conv2d(128, 128, kernel_size=(3, 3), stride=(1, 1), padding=(1, 1))
    (fpn_lateral5): Conv2d(512, 128, kernel_size=(1, 1), stride=(1, 1))
    (fpn_output5): Conv2d(128, 128, kernel_size=(3, 3), stride=(1, 1), padding=(1, 1))
    (top_block): LastLevelMaxPool()
    (bottom_up): VoVNet(
      (stem): Sequential(
        (stem_1/conv): Conv2d(3, 64, kernel_size=(3, 3), stride=(2, 2), padding=(1, 1), bias=False)
        (stem_1/norm): FrozenBatchNorm2d(num_features=64, eps=1e-05)
        (stem_1/relu): ReLU(inplace=True)
        (stem_2/conv): Conv2d(64, 64, kernel_size=(3, 3), stride=(1, 1), padding=(1, 1), bias=False)
        (stem_2/norm): FrozenBatchNorm2d(num_features=64, eps=1e-05)
        (stem_2/relu): ReLU(inplace=True)
        (stem_3/conv): Conv2d(64, 128, kernel_size=(3, 3), stride=(2, 2), padding=(1, 1), bias=False)
        (stem_3/norm): FrozenBatchNorm2d(num_features=128, eps=1e-05)
        (stem_3/relu): ReLU(inplace=True)
      )
      (stage2): _OSA_stage(
        (OSA2_1): _OSA_module(
          (layers): ModuleList(
            (0): Sequential(
              (OSA2_1_0/conv): Conv2d(128, 64, kernel_size=(3, 3), stride=(1, 1), padding=(1, 1), bias=False)
              (OSA2_1_0/norm): FrozenBatchNorm2d(num_features=64, eps=1e-05)
              (OSA2_1_0/relu): ReLU(inplace=True)
            )
            (1): Sequential(
              (OSA2_1_1/conv): Conv2d(64, 64, kernel_size=(3, 3), stride=(1, 1), padding=(1, 1), bias=False)
              (OSA2_1_1/norm): FrozenBatchNorm2d(num_features=64, eps=1e-05)
              (OSA2_1_1/relu): ReLU(inplace=True)
            )
            (2): Sequential(
              (OSA2_1_2/conv): Conv2d(64, 64, kernel_size=(3, 3), stride=(1, 1), padding=(1, 1), bias=False)
              (OSA2_1_2/norm): FrozenBatchNorm2d(num_features=64, eps=1e-05)
              (OSA2_1_2/relu): ReLU(inplace=True)
            )
          )
          (concat): Sequential(
            (OSA2_1_concat/conv): Conv2d(320, 112, kernel_size=(1, 1), stride=(1, 1), bias=False)
            (OSA2_1_concat/norm): FrozenBatchNorm2d(num_features=112, eps=1e-05)
            (OSA2_1_concat/relu): ReLU(inplace=True)
          )
          (ese): eSEModule(
            (avg_pool): AdaptiveAvgPool2d(output_size=1)
            (fc): Conv2d(112, 112, kernel_size=(1, 1), stride=(1, 1))
            (hsigmoid): Hsigmoid()
          )
        )
      )
      (stage3): _OSA_stage(
        (Pooling): MaxPool2d(kernel_size=3, stride=2, padding=0, dilation=1, ceil_mode=True)
        (OSA3_1): _OSA_module(
          (layers): ModuleList(
            (0): Sequential(
              (OSA3_1_0/conv): Conv2d(112, 80, kernel_size=(3, 3), stride=(1, 1), padding=(1, 1), bias=False)
              (OSA3_1_0/norm): FrozenBatchNorm2d(num_features=80, eps=1e-05)
              (OSA3_1_0/relu): ReLU(inplace=True)
            )
            (1): Sequential(
              (OSA3_1_1/conv): Conv2d(80, 80, kernel_size=(3, 3), stride=(1, 1), padding=(1, 1), bias=False)
              (OSA3_1_1/norm): FrozenBatchNorm2d(num_features=80, eps=1e-05)
              (OSA3_1_1/relu): ReLU(inplace=True)
            )
            (2): Sequential(
              (OSA3_1_2/conv): Conv2d(80, 80, kernel_size=(3, 3), stride=(1, 1), padding=(1, 1), bias=False)
              (OSA3_1_2/norm): FrozenBatchNorm2d(num_features=80, eps=1e-05)
              (OSA3_1_2/relu): ReLU(inplace=True)
            )
          )
          (concat): Sequential(
            (OSA3_1_concat/conv): Conv2d(352, 256, kernel_size=(1, 1), stride=(1, 1), bias=False)
            (OSA3_1_concat/norm): FrozenBatchNorm2d(num_features=256, eps=1e-05)
            (OSA3_1_concat/relu): ReLU(inplace=True)
          )
          (ese): eSEModule(
            (avg_pool): AdaptiveAvgPool2d(output_size=1)
            (fc): Conv2d(256, 256, kernel_size=(1, 1), stride=(1, 1))
            (hsigmoid): Hsigmoid()
          )
        )
      )
      (stage4): _OSA_stage(
        (Pooling): MaxPool2d(kernel_size=3, stride=2, padding=0, dilation=1, ceil_mode=True)
        (OSA4_1): _OSA_module(
          (layers): ModuleList(
            (0): Sequential(
              (OSA4_1_0/conv): Conv2d(256, 96, kernel_size=(3, 3), stride=(1, 1), padding=(1, 1), bias=False)
              (OSA4_1_0/norm): FrozenBatchNorm2d(num_features=96, eps=1e-05)
              (OSA4_1_0/relu): ReLU(inplace=True)
            )
            (1): Sequential(
              (OSA4_1_1/conv): Conv2d(96, 96, kernel_size=(3, 3), stride=(1, 1), padding=(1, 1), bias=False)
              (OSA4_1_1/norm): FrozenBatchNorm2d(num_features=96, eps=1e-05)
              (OSA4_1_1/relu): ReLU(inplace=True)
            )
            (2): Sequential(
              (OSA4_1_2/conv): Conv2d(96, 96, kernel_size=(3, 3), stride=(1, 1), padding=(1, 1), bias=False)
              (OSA4_1_2/norm): FrozenBatchNorm2d(num_features=96, eps=1e-05)
              (OSA4_1_2/relu): ReLU(inplace=True)
            )
          )
          (concat): Sequential(
            (OSA4_1_concat/conv): Conv2d(544, 384, kernel_size=(1, 1), stride=(1, 1), bias=False)
            (OSA4_1_concat/norm): FrozenBatchNorm2d(num_features=384, eps=1e-05)
            (OSA4_1_concat/relu): ReLU(inplace=True)
          )
          (ese): eSEModule(
            (avg_pool): AdaptiveAvgPool2d(output_size=1)
            (fc): Conv2d(384, 384, kernel_size=(1, 1), stride=(1, 1))
            (hsigmoid): Hsigmoid()
          )
        )
      )
      (stage5): _OSA_stage(
        (Pooling): MaxPool2d(kernel_size=3, stride=2, padding=0, dilation=1, ceil_mode=True)
        (OSA5_1): _OSA_module(
          (layers): ModuleList(
            (0): Sequential(
              (OSA5_1_0/conv): Conv2d(384, 112, kernel_size=(3, 3), stride=(1, 1), padding=(1, 1), bias=False)
              (OSA5_1_0/norm): FrozenBatchNorm2d(num_features=112, eps=1e-05)
              (OSA5_1_0/relu): ReLU(inplace=True)
            )
            (1): Sequential(
              (OSA5_1_1/conv): Conv2d(112, 112, kernel_size=(3, 3), stride=(1, 1), padding=(1, 1), bias=False)
              (OSA5_1_1/norm): FrozenBatchNorm2d(num_features=112, eps=1e-05)
              (OSA5_1_1/relu): ReLU(inplace=True)
            )
            (2): Sequential(
              (OSA5_1_2/conv): Conv2d(112, 112, kernel_size=(3, 3), stride=(1, 1), padding=(1, 1), bias=False)
              (OSA5_1_2/norm): FrozenBatchNorm2d(num_features=112, eps=1e-05)
              (OSA5_1_2/relu): ReLU(inplace=True)
            )
          )
          (concat): Sequential(
            (OSA5_1_concat/conv): Conv2d(720, 512, kernel_size=(1, 1), stride=(1, 1), bias=False)
            (OSA5_1_concat/norm): FrozenBatchNorm2d(num_features=512, eps=1e-05)
            (OSA5_1_concat/relu): ReLU(inplace=True)
          )
          (ese): eSEModule(
            (avg_pool): AdaptiveAvgPool2d(output_size=1)
            (fc): Conv2d(512, 512, kernel_size=(1, 1), stride=(1, 1))
            (hsigmoid): Hsigmoid()
          )
        )
      )
    )
  )
  (proposal_generator): RPN(
    (rpn_head): StandardRPNHead(
      (conv): Conv2d(
        128, 128, kernel_size=(3, 3), stride=(1, 1), padding=(1, 1)
        (activation): ReLU()
      )
      (objectness_logits): Conv2d(128, 3, kernel_size=(1, 1), stride=(1, 1))
      (anchor_deltas): Conv2d(128, 12, kernel_size=(1, 1), stride=(1, 1))
    )
    (anchor_generator): DefaultAnchorGenerator(
      (cell_anchors): BufferList()
    )
  )
  (roi_heads): StandardROIHeads(
    (box_pooler): ROIPooler(
      (level_poolers): ModuleList(
        (0): ROIAlign(output_size=(7, 7), spatial_scale=0.25, sampling_ratio=0, aligned=True)
        (1): ROIAlign(output_size=(7, 7), spatial_scale=0.125, sampling_ratio=0, aligned=True)
        (2): ROIAlign(output_size=(7, 7), spatial_scale=0.0625, sampling_ratio=0, aligned=True)
        (3): ROIAlign(output_size=(7, 7), spatial_scale=0.03125, sampling_ratio=0, aligned=True)
      )
    )
    (box_head): FastRCNNConvFCHead(
      (flatten): Flatten(start_dim=1, end_dim=-1)
      (fc1): Linear(in_features=6272, out_features=1024, bias=True)
      (fc_relu1): ReLU()
      (fc2): Linear(in_features=1024, out_features=1024, bias=True)
      (fc_relu2): ReLU()
    )
    (box_predictor): FastRCNNOutputLayers(
      (cls_score): Linear(in_features=1024, out_features=5, bias=True)
      (bbox_pred): Linear(in_features=1024, out_features=16, bias=True)
    )
  )
)
[11/04 14:50:22] d2.data.build INFO: Removed 0 images with no usable annotations. 41976 images left.
[11/04 14:50:23] d2.data.build INFO: Distribution of instances among all 4 categories:
[36m|  category   | #instances   |  category  | #instances   |  category   | #instances   |
|:-----------:|:-------------|:----------:|:-------------|:-----------:|:-------------|
…
